…
lf.cnn4(out) out = self.bn4(out) out = self.relu4(out) # Max pool 4 out = self.maxpool4(out) # out = self.dropout(out) # Resize out = out.view(out.size(0), -1) # Linear layers out = self.fc1(out) out = F.log_softmax(self.fc2(out)) probs = F.log_softmax(out, dim=1) return out, probs . device = torch.device(&quot;cuda:0&quot; if torch.cuda.is_available() else &quot;cpu&quot;) print(device) learning_rate = 0.001 num_epochs = 50 . cuda:0 . model = CNNModel() model = model.to(device) criterion = nn.NLLLoss() optimizer = torch.optim.SGD(model.parameters(), lr=learning_rate) . model . CNNModel( (cnn1): Conv2d(3, 16, kernel_size=(5, 5), stride=(1, 1), padding=(2, 2)) (bn1): BatchNorm2d(16, eps=1e-05, momentum=0.1, affine=True, track_running_stats=True) (relu1): ReLU() (maxpool1): MaxPool2d(kernel_size=2, stride=2, padding=0, dilation=1, ceil_mode=False) (cnn2): Conv2d(16, 32, kernel_size=(5, 5), stride=(1, 1), padding=(2, 2)) (bn2): BatchNorm2d(32, eps=1e-05, momentum=0.1, affine=True, track_running_stats=True) (relu2): ReLU() (maxpool2): MaxPool2d(kernel_size=2, stride=2, padding=0, dilation=1, ceil_mode=False) (cnn3): Conv2d(32, 64, kernel_size=(5, 5), stride=(1, 1), padding=(2, 2)) (bn3): BatchNorm2d(64, eps=1e-05, momentum=0.1, affine=True, track_running_stats=True) (relu3): ReLU() (maxpool3): MaxPool2d(kernel_size=2, stride=2, padding=0, dilation=1, ceil_mode=False) (cnn4): Conv2d(64, 128, kernel_size=(5, 5), stride=(1, 1), padding=(2, 2)) (bn4): BatchNorm2d(128, eps=1e-05, momentum=0.1, affine=True, track_running_stats=True) (relu4): ReLU() (maxpool4): MaxPool2d(kernel_size=2, stride=2, padding=0, dilation=1, ceil_mode=False) (dropout): Dropout(p=0.6, inplace=False) (fc1): Linear(in_features=3200, out_features=512, bias=True) (fc2): Linear(in_features=512, out_features=61, bias=True) ) . import time import torch.nn.functional as F def compute_accuracy(model, data_loader): correct_pred, num_examples = 0, 0 for features, targets in data_loader: features = features.to(device) targets = targets.to(device) logits, probas = model(features) _, predicted_labels = torch.max(probas, 1) num_examples += targets.size(0) correct_pred += (predicte
…
= nn.Sequential( nn.Linear(256, 512), nn.ReLU() ) self.layer2 = nn.Sequential( nn.Linear(512, 1024), nn.ReLU() ) self.layer3 = nn.Sequential( nn.Linear(1024, n_out), nn.Tanh() ) def forward(self, x): x = self.layer0(x) x = self.layer1(x) x = self.layer2(x) x = self.layer3(x) return x def noise(size): n = Variable(torch.randn(size,100)) if torch.cuda.is_available(): return n.cuda() return n . discriminator = Discriminator() generator = Generator() if torch.cuda.is_available(): discriminator.cuda() generator.cuda() . print(discriminator) print(generator) . Discriminator( (layer0): Sequential( (0): Linear(in_features=784, out_features=1024, bias=True) (1): ReLU() (2): Dropout(p=0.4, inplace=False) ) (layer1): Sequential( (0): Linear(in_features=1024, out_features=512, bias=True) (1): ReLU() (2): Dropout(p=0.4, inplace=False) ) (layer2): Sequential( (0): Linear(in_features=512, out_features=256, bias=True) (1): ReLU() (2): Dropout(p=0.4, inplace=False) ) (layer3): Sequential( (0): Linear(in_features=256, out_features=1, bias=True) (1): Sigmoid() ) ) Generator( (layer0): Sequential( (0): Linear(in_features=100, out_features=256, bias=True) (1): ReLU() ) (layer1): Sequential( (0): Linear(in_features=256, out_features=512, bias=True) (1): ReLU() ) (layer2): Sequential( (0): Linear(in_features=512, out_features=1024, bias=True) (1): ReLU() ) (layer3): Sequential( (0): Linear(in_features=1024, out_features=784, bias=True) (1): Tanh() ) ) . d_optimizer = optim.Adam(discriminator.parameters(), lr = 0.0001) g_optimizer = optim.Adam(generator.parameters(), lr = 0.0001) loss = nn.BCELoss() d_steps = 1 epochs = 200 . def real_data_target(size): &#39;&#39;&#39; Tensor containing ones, with shape = size &#39;&#39;&#39; data = Variable(torch.ones(size, 1)) if torch.cuda.is_avai
…
