…
lf.cnn4(out) out = self.bn4(out) out = self.relu4(out) # Max pool 4 out = self.maxpool4(out) # out = self.dropout(out) # Resize out = out.view(out.size(0), -1) # Linear layers out = self.fc1(out) out = F.log_softmax(self.fc2(out)) probs = F.log_softmax(out, dim=1) return out, probs . device = torch.device(&quot;cuda:0&quot; if torch.cuda.is_available() else &quot;cpu&quot;) print(device) learning_rate = 0.001 num_epochs = 50 . cuda:0 . model = CNNModel() model = model.to(device) criterion = nn.NLLLoss() optimizer = torch.optim.SGD(model.parameters(), lr=learning_rate) . model . CNNModel( (cnn1): Conv2d(3, 16, kernel_size=(5, 5), stride=(1, 1), padding=(2, 2)) (bn1): BatchNorm2d(16, eps=1e-05, momentum=0.1, affine=True, track_running_stats=True) (relu1): ReLU() (maxpool1): MaxPool2d(kernel_size=2, stride=2, padding=0, dilation=1, ceil_mode=False) (cnn2): Conv2d(16, 32, kernel_size=(5, 5), stride=(1, 1), padding=(2, 2)) (bn2): BatchNorm2d(32, eps=1e-05, momentum=0.1, affine=True, track_running_stats=True) (relu2): ReLU() (maxpool2): MaxPool2d(kernel_size=2, stride=2, padding=0, dilation=1, ceil_mode=False) (cnn3): Conv2d(32, 64, kernel_size=(5, 5), stride=(1, 1), padding=(2, 2)) (bn3): BatchNorm2d(64, eps=1e-05, momentum=0.1, affine=True, track_running_stats=True) (relu3): ReLU() (maxpool3): MaxPool2d(kernel_size=2, stride=2, padding=0, dilation=1, ceil_mode=False) (cnn4): Conv2d(64, 128, kernel_size=(5, 5), stride=(1, 1), padding=(2, 2)) (bn4): BatchNorm2d(128, eps=1e-05, momentum=0.1, affine=True, track_running_stats=True) (relu4): ReLU() (maxpool4): MaxPool2d(kernel_size=2, stride=2, padding=0, dilation=1, ceil_mode=False) (dropout): Dropout(p=0.6, inplace=False) (fc1): Linear(in_features=3200, out_features=512, bias=True) (fc2): Linear(in_features=512, out_features=61, bias=True) ) . import time import torch.nn.functional as F def compute_accuracy(model, data_loader): correct_pred, num_examples = 0, 0 for features, targets in data_loader: features = features.to(device) targets = targets.to(device) logits, probas = model(features) _, predicted_labels = torch.max(probas, 1) num_examples += targets.size(0) correct_pred += (predicte
…
= nn.Sequential( nn.Linear(256, 512), nn.ReLU() ) self.layer2 = nn.Sequential( nn.Linear(512, 1024), nn.ReLU() ) self.layer3 = nn.Sequential( nn.Linear(1024, n_out), nn.Tanh() ) def forward(self, x): x = self.layer0(x) x = self.layer1(x) x = self.layer2(x) x = self.layer3(x) return x def noise(size): n = Variable(torch.randn(size,100)) if torch.cuda.is_available(): return n.cuda() return n . discriminator = Discriminator() generator = Generator() if torch.cuda.is_available(): discriminator.cuda() generator.cuda() . print(discriminator) print(generator) . Discriminator( (layer0): Sequential( (0): Linear(in_features=784, out_features=1024, bias=True) (1): ReLU() (2): Dropout(p=0.4, inplace=False) ) (layer1): Sequential( (0): Linear(in_features=1024, out_features=512, bias=True) (1): ReLU() (2): Dropout(p=0.4, inplace=False) ) (layer2): Sequential( (0): Linear(in_features=512, out_features=256, bias=True) (1): ReLU() (2): Dropout(p=0.4, inplace=False) ) (layer3): Sequential( (0): Linear(in_features=256, out_features=1, bias=True) (1): Sigmoid() ) ) Generator( (layer0): Sequential( (0): Linear(in_features=100, out_features=256, bias=True) (1): ReLU() ) (layer1): Sequential( (0): Linear(in_features=256, out_features=512, bias=True) (1): ReLU() ) (layer2): Sequential( (0): Linear(in_features=512, out_features=1024, bias=True) (1): ReLU() ) (layer3): Sequential( (0): Linear(in_features=1024, out_features=784, bias=True) (1): Tanh() ) ) . d_optimizer = optim.Adam(discriminator.parameters(), lr = 0.0001) g_optimizer = optim.Adam(generator.parameters(), lr = 0.0001) loss = nn.BCELoss() d_steps = 1 epochs = 200 . def real_data_target(size): &#39;&#39;&#39; Tensor containing ones, with shape = size &#39;&#39;&#39; data = Variable(torch.ones(size, 1)) if torch.cuda.is_avai
…
(x, pool_locs[self.unpool2pool_index[idx]]) # print(self.decoder[idx],x.shape) self.decoder_feature_outputs[idx] = x else: x = self.decoder[idx](x) # print(self.decoder[idx],x.shape) self.decoder_feature_outputs[idx] = x reconstructed = x return reconstructed, self.decoder_feature_outputs . encoder = Encoder() decoder = Decoder() encoder = encoder.to(d) decoder = decoder.to(d) print(&quot;&quot;*35) print(&#39; ENCODER &#39;) print(&quot;&quot;*35) print(encoder) print(&quot;&quot;*35) print(&#39; DECODER &#39;) print(&quot;&quot;*35) print(decoder) . ENCODER Encoder( (encoder): Sequential( (0): Conv2d(3, 64, kernel_size=(3, 3), stride=(1, 1), padding=(1, 1)) (1): ReLU() (2): Conv2d(64, 64, kernel_size=(3, 3), stride=(1, 1), padding=(1, 1)) (3): ReLU() (4): MaxPool2d(kernel_size=2, stride=2, padding=0, dilation=1, ceil_mode=False) (5): Conv2d(64, 128, kernel_size=(3, 3), stride=(1, 1), padding=(1, 1)) (6): ReLU() (7): Conv2d(128, 128, kernel_size=(3, 3), stride=(1, 1), padding=(1, 1)) (8): ReLU() (9): MaxPool2d(kernel_size=2, stride=2, padding=0, dilation=1, ceil_mode=False) (10): Conv2d(128, 256, kernel_size=(3, 3), stride=(1, 1), padding=(1, 1)) (11): ReLU() (12): Conv2d(256, 256, kernel_size=(3, 3), stride=(1, 1), padding=(1, 1)) (13): ReLU() (14): Conv2d(256, 256, kernel_size=(3, 3), stride=(1, 1), padding=(1, 1)) (15): ReLU() (16): MaxPool2d(kernel_size=2, stride=2, padding=0, dilation=1, ceil_mode=False) (17): Conv2d(256, 512, kernel_size=(3, 3), stride=(1, 1), padding=(1, 1)) (18): ReLU() (19): Conv2d(512, 512, kernel_size=(3, 3), stride=(1, 1), padding=(1, 1)) (20): ReLU() (21): Conv2d(512, 512, kernel_size=(3, 3), stride=(1, 1), padding=(1, 1)) (22): ReLU() (23): MaxPool2d(kernel_size=2, stride=2, padding=0, dilation=1, ceil_mode=False) (24): Conv2d(512, 512, kernel_size=(3, 3), stride=(1, 1), padding=(1, 1)) (25): ReLU() (26): Conv2d(512, 512, kernel_size=(3, 3), stride=(1, 1), padding=(1, 1)) (27): ReLU() (28): Conv2d(512, 512, kernel_size=(3, 3), stride=(1, 1), padding=(1, 1)) (29): ReLU() (30): MaxPool2d(kernel_size=2, stride=2, padding=0, dilation=1, ceil_mode=False) ) ) DECODER Decoder( (decoder): Sequential( (0): MaxUnpool2d(kernel_size=(2, 2), stride=(2, 2), padding=(0, 0)) (1): ReLU() (2): ConvTranspose2d(512, 512, kernel_size=(3, 3), stride=(1, 1), padding=(1, 1)) (3): ReLU() (4): ConvTranspose2d(512, 512, kernel_size=(3, 3), stride=(1, 1), padding=(1, 1)) (5): ReLU() (6): ConvTranspose2d(512, 512, kernel_size=(3, 3), stride=(1, 1), padding=(1, 1)) (7): MaxUnpool2d(kernel_size=(2, 2), stride=(2, 2), padding=(0, 0)) (8): ReLU() (9): ConvTranspose2d(512, 512, kernel_size=(3, 3), stride=(1, 1), padding=(1, 1)) (10): ReLU() (11): ConvTranspose2d(512, 512, kernel_size=(3, 3), stride=(1, 1), padding=(1, 1)) (12): ReLU() (13): ConvTranspose2d(512, 256, kernel_size=(3, 3), stride=(1, 1), padding=(1, 1)) (14): MaxUnpool2d(kernel_size=(2, 2), stride=(2, 2), padding=(0, 0)) (15): ReLU() (16): ConvTranspose2d(256, 256, kernel_size=(3, 3), stride=(1, 1), padding=(1, 1)) (17): ReLU() (18): ConvTranspose2d(256, 256, kernel_size=(3, 3), stride=(1, 1), padding=(1, 1)) (19): ReLU() (20): ConvTranspose2d(256, 128, kernel_size=(3, 3), stride=(1, 1), padding=(1, 1)) (21): MaxUnpool2d(kernel_size=(2, 2), stride=(2, 2), padding=(0, 0)) (22): ReLU() (23): ConvTranspose2d(128, 128, kernel_size=(3, 3), stride=(1, 1), padding=(1, 1)) (24): ReLU() (25): ConvTranspose2d(128, 64, kernel_size=(3, 3), stride=(1, 1), padding=(1, 1)) (26): MaxUnpool2d(kernel_size=(2, 2), stride=(2, 2), padding=(0, 0)) (27): ReLU() (28): ConvTranspose2d(64, 64, kernel_size=(3, 3), stride=(1, 1), padding=(1, 1)) (29): ReLU() (30): ConvTranspose2d(64, 3, kernel_size=(3, 3), stride=(1, 1), padding=(1, 1)) ) ) . optimizer = torch.optim.Adam(list(encoder.parameters()) + list(decoder.parameters()),weight_decay=1e-5) print(np.shape(list(encoder.parameters()) + list(decoder.parameters()))) . (52,) . criterion = nn.MSELoss() . print(&quot;&quot;*35) print(&#39; ENCODER PARAMETERS &#39;) print(&quot;&quot;*35) for i in range(len(list(encoder.parame
…
